resources/bn_cwt_weights.npz (npz, 1452 bytes, 4 tensors)

beta f4 [32]
0	0x3c58987c	0.013219949
1	0xbc0cea40	-0.008600771
2	0xbc80e7cb	-0.015735528
3	0x3be907f4	0.007111544
4	0x3a42090c	0.0007401861
5	0x3bf0a3b5	0.007343734
6	0x3b9c9b9d	0.0047792927
7	0x3b8206da	0.003968102
8	0x3bf25651	0.0073955436
9	0xbbc84493	-0.0061116903
10	0x3ca172c1	0.01970804
11	0xbc84a824	-0.016193457
12	0xbbf2d95f	-0.0074111666
13	0x3bcefeeb	0.0063170097
14	0x39d7be1b	0.00041149635
15	0xbbaccfc3	-0.0052737906
16	0xbc2ac3e0	-0.010422677
17	0x3af0bdfc	0.0018367167
18	0xbc12599d	-0.008932498
19	0x3c284992	0.010271447
20	0x3b750c13	0.003739123
21	0xba6263ed	-0.0008636106
22	0x3b233ec5	0.002490924
23	0xbaee1730	-0.0018164869
24	0x3c05c7c7	0.008165306
25	0xbb63f3ff	-0.0034782884
26	0xbcd6dd29	-0.026228504
27	0xbb9aea21	-0.0047276174
28	0x3bd92963	0.006627248
29	0x3b62383b	0.003451838
30	0xbb4b1721	-0.0030989128
31	0xbc0ee16a	-0.008720735

gamma f4 [32]
0	0x3f80383d	1.0017163
1	0x3f803bcb	1.0018247
2	0x3f7f4e8c	0.9972923
3	0x3f7ecfbd	0.99535733
4	0x3f7fc478	0.9990916
5	0x3f805637	1.0026311
6	0x3f7f299c	0.99672866
7	0x3f7e07b4	0.99230504
8	0x3f804c61	1.0023309
9	0x3f80bd29	1.0057727
10	0x3f821997	1.0164059
11	0x3f8110cb	1.008325
12	0x3f8124c4	1.0089345
13	0x3f817692	1.011431
14	0x3f810450	1.0079441
15	0x3f810bd6	1.0081737
16	0x3f807a72	1.0037367
17	0x3f809a41	1.0047075
18	0x3f80bbf1	1.0057355
19	0x3f817310	1.0113239
20	0x3f80c284	1.0059361
21	0x3f806a6c	1.0032477
22	0x3f7c2a5e	0.9850215
23	0x3f7d2ac8	0.98893404
24	0x3f79bb94	0.97551847
25	0x3f7b0ee9	0.98069626
26	0x3f7c0038	0.98437834
27	0x3f781241	0.96902853
28	0x3f7877d4	0.97057843
29	0x3f7c2c88	0.9850545
30	0x3f7e469a	0.9932648
31	0x3f7e5726	0.9935173

moving_mean f4 [32]
0	0x3576a786	9.188592e-07
1	0x3583ac71	9.810448e-07
2	0x358d144b	1.0511225e-06
3	0x358fcf89	1.0714731e-06
4	0x3576137c	9.1670495e-07
5	0x34d76a56	4.012424e-07
6	0xb53094b0	-6.578148e-07
7	0xb618f70e	-2.279357e-06
8	0xb68a000e	-4.112727e-06
9	0xb6b77b2f	-5.4681655e-06
10	0xb6c2b4f5	-5.8027167e-06
11	0xb6ad044c	-5.156302e-06
12	0xb67d4dcd	-3.7745224e-06
13	0xb5d6a13a	-1.5991166e-06
14	0x35b14e9b	1.3210405e-06
15	0x369512be	4.442728e-06
16	0x36ef0089	7.1228174e-06
17	0x3716c8bc	8.987434e-06
18	0x372c119b	1.0256098e-05
19	0x374b78dc	1.2127883e-05
20	0x3783aa04	1.5695587e-05
21	0x37a80eaa	2.003399e-05
22	0x37bfedcc	2.2879707e-05
23	0x37c9c2f7	2.4051855e-05
24	0x37e6d72d	2.7518336e-05
25	0x38223bf6	3.8679653e-05
26	0x3877d17b	5.9084483e-05
27	0x38b10d88	8.442538e-05
28	0x38df2f5b	0.00010642289
29	0x38f02e31	0.000114526956
30	0x38d1f83d	0.000100121346
31	0x38874e84	6.451926e-05

moving_variance f4 [32]
0	0x3c253861	0.010084243
1	0x3c7df7fe	0.0155010205
2	0x3cc11e05	0.023573885
3	0x3d11fc1b	0.035640817
4	0x3d585508	0.052815467
5	0x3d97e14b	0.07416018
6	0x3dc22aac	0.09480795
7	0x3ddd7b18	0.10814494
8	0x3de802eb	0.113286816
9	0x3dedc21a	0.116092876
10	0x3df3cb4d	0.11904011
11	0x3df69268	0.120396435
12	0x3df92aac	0.12166342
13	0x3e020a51	0.12699248
14	0x3e0e30a9	0.1388575
15	0x3e1fc1fc	0.15601343
16	0x3e3357b6	0.17513928
17	0x3e45fabc	0.19333929
18	0x3e56aa83	0.20963483
19	0x3e66e2fa	0.22547522
20	0x3e7903b5	0.2431782
21	0x3e86f8db	0.26361737
22	0x3e923b51	0.2856088
23	0x3e9cf07e	0.3065223
24	0x3ea52087	0.3225138
25	0x3ea85d9c	0.32883918
26	0x3ea486c8	0.3213408
27	0x3e98e7e7	0.29864427
28	0x3e86eaf5	0.26351133
29	0x3e62e80a	0.22158828
30	0x3e37056f	0.17873167
31	0x3e0f0f0a	0.1397058
